model/model.pth (torch, 17609 bytes, 4 tensors)

fc1.weight f4 [256, 11]
00000000: e682 00be f1d8 413e 50c3 67bd 2917 7d3e
00000010: 156a 3fbe d494 203e aaaa 69bd a15d a53d
00000020: 4116 e0be 4e18 6c3d 7247 413e b3e5 5cbd
00000030: cf9a 2b3e 2390 aabd 70e0 613e c7ff bfbc
00000040: 0a45 4c3e 8609 3e3e 2075 85be 844c 57be
00000050: 10ae 84be 4178 4bbd f615 74be 3a7d a73e
00000060: b588 e03e 29a9 8b3c c730 503e 2e40 363e
00000070: 4c98 8bbd e029 55bd 580d 183e 2366 473e
00000080: d22d 103d b915 b63e 7fa6 05be 1f8a 7f3e
00000090: 715a b43d fd4f 9fbc 75ec ddbe efef c5bd
000000a0: 73f1 0bbe 5c7a 87bd ae79 d03e 1b79 acbd
000000b0: b53b a93d c5a4 03bd dce4 f93e dfc8 073e
000000c0: 6c06 9abe 2ee9 243e 283a 683b 58a7 9dbd
000000d0: 3d9d 723e 90ce c6bd 5e8b 34be 33b9 80bd
000000e0: 7dac e33e 0c02 983c 6125 38be 39c0 bfbe
000000f0: 4b58 ba3e c00d 78be 1893 1d3e d528 963e
00000100: 2d53 bdbe f7c9 843e d885 ea3d ddc5 8abe
00000110: 6eac 44be ac4b 4a3e dbfb 8ebc c484 2fbe
00000120: 0ed7 c03b f550 b6bd 3e87 0cbe 89a0 d2bd
00000130: 3745 a2bd 53ff 4b3e 2abf 08bf 63e1 233f
00000140: ed1a e0bc 6e65 f3bd b09c 74bd 83c2 33be
00000150: 0d27 583e ba1e 26bd 5073 15be 16a3 243d
00000160: 252b ae3e 77f5 9e3e bd53 a23c 076e fbbd
00000170: bc71 95be 7701 8f3e eb6b 71bd 0d88 3b3e
00000180: 3712 0bbe ab94 28be 2e88 683e f3e2 01bf
00000190: d932 773e e434 fa3e e047 aebe 0429 dbbc
000001a0: 5164 7b3e 5479 a53d 040d 5fbe 2099 d63c
000001b0: c2c8 273d c321 403e 989d 7abe 5a01 f93e
000001c0: 0f0f 653e ea43 b03d e957 afbd 4ee7 67be
000001d0: be5a 3b3e 92b9 273d 5ceb f7bd d33e 903d
000001e0: cb0a 12bd 206a 35bc 8d01 033e d3f7 053e
000001f0: ed3a 56bd 6775 2dbe 86b8 b5bd e6cf e03b
00000200: a605 6bbe 40fd 96be 525d 7dbe 860f 5fbd
00000210: 0eda a1be 5869 833e 6c22 943c ee6d 963e
00000220: d76a 3fbd 354b ad3c b218 4c3e aa1b 593c
00000230: c8ef 943d e277 0f3e f493 7f3e 0bf3 81be
00000240: 7bc7 c53e 2349 42be 8dfd 7e3e 9d34 b13d
00000250: 90f6 af3e 6792 5cbe 0fd3 0bbe 8136 66be
00000260: 5096 52be 4e96 a03e 888e 503e 4e0f 913e
00000270: 90e6 c63e eb0f ccbe 1c56 f4bd 898b 21be
00000280: 796d 31be 35d7 a03e e17a b7bd 5100 caba
00000290: e55c 343e 2842 ea3e f083 f3bd 12ab e0be
000002a0: 8b2b d53c b780 3fbe 1f3a a33c c750 943e
000002b0: f0c5 593e 553c 943c e582 66bc a471 ba3e
000002c0: 2a54 b23e 6d45 0abf 1e6e f63e e5f1 323e
000002d0: ce60 b53d 83e7 93bd c310 0dbe 8ca2 843e
000002e0: aaee fd3d 63f3 6f3e 9bbd 833e e522 cabd
000002f0: f2d0 5fbe 02fb 0f3e c8ee 27be b131 86be
00000300: db92 45bd 3f56 6dbe c4b8 ed3c ec9d 46bd
00000310: a585 febd 31fe e53d 3d02 b3bd c41a b5be
00000320: efc8 fd3d 7f31 02be 8ee4 5bbd 9a32 0d3e
00000330: 3bc3 123e b982 15be 292b 79be badd 623e
00000340: a9e9 a9bd 04df a93e 9a3f e43d 7001 a6bd
00000350: dba4 e5bd daff 2c3e fbf6 213d c144 a0be
00000360: da0f 28be 5dea 7e3c 27ff a03c 191d 293e
00000370: a77c aebe 7604 143b 5bf7 87be b819 913e
00000380: 0bb9 843e 4d17 26be 8e87 ccbe 1868 b9be
00000390: c0a4 afbe 5817 a53d dec1 903e 15f3 d8bd
000003a0: 0f89 3dbe 22cc f4bd 12f4 643c 8f52 d5be
000003b0: ed36 bd3d da41 5b3e 4c44 88bc 82c0 d33e
000003c0: 4ab3 42be 912e 5fbe f8fd eb3e b5b0 d73a
000003d0: 7202 3d3d 9d46 cbbd 0f54 08bd c2ca 663e
000003e0: d02d a03e 934d 723e 0eae 3f3e cc24 abbd
000003f0: 54b0 05be 82e9 1a3e 0c8c 3e3e b557 52be
-0.12549934 0.18930413 -0.05658275 0.24715866 -0.18692811 0.15681773 -0.057047524 0.08074499
-0.43766978 0.057640366 0.1887491 -0.053929996 0.16758274 -0.08328273 0.22058272 -0.023437394
0.19948211 0.1855832 -0.26065922 -0.21025282 -0.2591405 -0.04967523 -0.23836502 0.32712728
0.438543 0.017048435 0.20331107 0.1779792 -0.06816158 -0.05204189 0.1484884 0.19472556
0.035199948 0.35563448 -0.13051794 0.24955033 0.08806313 -0.019447321 -0.43344465 -0.09664904
-0.13666324 -0.06615135 0.40717834 -0.084215365 0.08263341 -0.03213956 0.48807418 0.1326022
-0.30083025 0.16104576 0.0035435054 -0.07697934 0.23692794 -0.097073674 -0.1763129 -0.06285324
0.44467536 0.018555664 -0.17983009 -0.37451342 0.36395487 -0.24223995 0.15388143 0.29328027
-0.3697752 0.25935337 0.1145131 -0.27104083 -0.19206402 0.19755429 -0.017454078 -0.1714049
0.0058850115 -0.0890216 -0.13723466 -0.10284526 -0.07923358 0.19921617 -0.53416693 0.6401579
-0.02735659 -0.118845806 -0.05971974 -0.17554669 0.21108647 -0.040556647 -0.1459477 0.040194593
0.34017292 0.3104665 0.01981532 -0.122768454 -0.29188335 0.27930805 -0.05894081 0.18313618
-0.13581167 -0.16462962 0.22708198 -0.5073692 0.2414049 0.48868477 -0.3403921 -0.026752956
0.24549986 0.08079782 -0.21782309 0.026196063 0.040962942 0.18762879 -0.2447418 0.48633844
0.22369026 0.086067036 -0.085616894 -0.2264683 0.18296334 0.040948458 -0.12105438 0.07043233
-0.035654824 -0.011072665 0.1279356 0.13082819 -0.05230229 -0.16939317 -0.08873086 0.006860721
-0.22951373 -0.2949009 -0.2474263 -0.054458164 -0.31611675 0.25666308 0.01808282 0.29380745
-0.04673275 0.021154026 0.19931296 0.0132512245 0.07272297 0.14010575 0.24958783 -0.2538074
0.38628754 -0.18973212 0.2490141 0.08652613 0.343678 -0.21540223 -0.13654731 -0.22481729
-0.20565152 0.31364673 0.20366871 0.2833199 0.3884778 -0.39855894 -0.119304866 -0.15775885
-0.17326917 0.3141419 -0.08958984 -0.0015411471 0.17613561 0.45753598 -0.118903995 -0.43880516
0.02602174 -0.18701445 0.019925175 0.28967878 0.21266913 0.018095175 -0.014069294 0.36414826
0.34829837 -0.54012185 0.48130888 0.17475088 0.08856355 -0.07221892 -0.13775925 0.25905263
0.12399037 0.23432688 0.25730595 -0.09869937 -0.2185705 0.14060596 -0.16399682 -0.26209787
-0.048235755 -0.23177432 0.029018767 -0.04849045 -0.124278344 0.11230124 -0.08740661 -0.35371983
0.12391841 -0.12714194 -0.053684764 0.13788834 0.14332287 -0.14600648 -0.2433287 0.22154894
-0.0829652 0.3317796 0.111449435 -0.08105743 -0.11213084 0.16894475 0.03954218 -0.31302455
-0.16412297 0.015558806 0.019652916 0.16515006 -0.34079477 0.0022585667 -0.26555905 0.28339934
0.25922427 -0.16219826 -0.3994717 -0.3621223 -0.34305382 0.08061093 0.2827291 -0.10593239
-0.18509315 -0.11952998 0.0139742065 -0.4166455 0.09238992 0.21411839 -0.016634129 0.4135781
-0.19013706 -0.21795107 0.460922 0.0016455861 0.04614491 -0.09925578 -0.03328329 0.22538283
0.31284952 0.23662405 0.1871874 -0.08356628 -0.13055545 0.15128139 0.18608111 -0.2054127

fc1.bias f4 [256]
00000000: 34b4 903e 341d b4be ec62 2fbe 6a87 fc3c
00000010: 248c 59bd dc8f 2b3d 9fc5 78be 24ef 0e3e
00000020: 870e dfbd 3c6f 2b3e ec65 a53e 952f e0bd
00000030: d8ce 903e 2e42 b2bd ab51 2f3e a47c e13d
00000040: d84b febd c204 8fbe 2f7c 3c3e 28cc 50be
00000050: 23d5 d63d 8cb1 8e3c 141a 33be 9acc b43c
00000060: 99d8 4abe 3a6f ea3b fa7b 39bc 577f b8bd
00000070: d3c5 7a3d 701c d73d 47a9 9fbd 0ad4 59be
00000080: b398 6bbe 2e3e 323e 9347 45bd 7279 793c
00000090: 3c3d 8d3e dcb2 a4be 1df9 22be 9697 873d
000000a0: b2f3 1dbe c0c8 46be 893f 26be ebb3 5fbe
000000b0: 28eb 113e c7f5 e8bc c401 c0bc daa5 debc
000000c0: bb0e 04be 8232 ef3c 11d5 7ebd 2dd3 9b3d
000000d0: 1c4b 663c 0c86 66bc e1ca 213e 6036 22bd
000000e0: 8a30 f13d b4f0 55bd fc55 8b3d 95d0 373e
000000f0: 6128 85bd bf76 95bd 09a5 823b 1afc b2be
00000100: 835f f53d 2a07 76be c0fd a73e 5d1d 0bbd
00000110: 3ade 4b3d 234b 8b3e 8e18 f73c 4a76 c5bd
00000120: 65dd 09be a883 91bd 83a5 983e a354 3e3e
00000130: b508 7abe a0e8 a63d 4a9b 3abd 5d59 80be
00000140: 702f 203e 669b d33a 7eef ac3d 4b6d 823e
00000150: 64f8 1e3f c8b7 16be c7f3 b2be ea79 c6be
00000160: b581 a0bc ce5a 7c3e 9a74 243e febb 973d
00000170: 699a 03be d030 c6bd 07a7 32be b60d 223e
00000180: bc8d d3bd 9c37 1bbe 48bb a43e caab 3bbe
00000190: cdc5 eebd 139f 35be e946 01be 4000 c7bd
000001a0: 52bc b3bc 63f5 49be ecfa 0fbe 8507 d4bd
000001b0: 4373 ecbd 6103 afbd bfd4 92be 4af9 d1bb
000001c0: 2cc5 2f3e ab59 273e 582b 5a3b 70d6 88bd
000001d0: f8bc cb3a bcaa abbc fd05 a03e 6054 333e
000001e0: 6d83 11be b76a 2cbd b6a8 1abd 45e5 04be
000001f0: c972 113d 8946 67be dd61 c2bc 8e07 313e
00000200: 3494 a03c c48f 26be 200b a53d 59d7 a63d
00000210: 2387 193e c467 0abe 118c 623e 8d8d c7bd
00000220: 7640 1bbe f60f 8c3d 308b d5bd 70d7 82be
00000230: b0f9 5e3e 60d3 ef3d e9e2 6a3e 3e68 ffbd
00000240: 3527 073e c094 52be 7fb2 45be 0b7d 95be
00000250: c05c a73b d8e0 7a3e 99ff d6bd 5696 7e3e
00000260: ef8d 88be 3ac0 573d dff4 0fbd 198c 15bd
00000270: be97 633e 6482 4fbe 8d3b 743c 284e 033c
00000280: 186d 03be 37a5 933e 2225 80bd 6fee 05be
00000290: 463f a3be fdbe bdbd 88fc 1cbe 7ec1 af3c
000002a0: 467b 34bd e5c2 9e3e c8c4 9bbc 2859 46be
000002b0: 9825 36bd ea8c 00be c2a7 113d bd17 98be
000002c0: b876 fabd d1a7 e33d 084c a13e cee6 41bc
000002d0: 21f9 dcbd 3cd6 013e 5742 6ebe ced0 ccbc
000002e0: 8257 c33b 3a10 f13d bca5 553e 742f 873d
000002f0: 9daa a23d 2185 4abe 047b 333c 5ae2 883e
00000300: 294b 2dbe 82d3 bd3d bd72 9c3e 9926 953e
00000310: c812 183e 7fae 1b3b 8d60 c2bd 6b36 f9bd
00000320: 409a 763c 7888 13be 631f 82be 16b7 913e
00000330: 6a6f 5b3e 8600 3ebe c0d3 e63d 5cfd a9be
00000340: e17c b73e 0fee e3bd d486 03be 7ed4 6d3d
00000350: d056 09b9 14a8 e3bd a889 f43c 6dff 86bd
00000360: 9a7a 3b3e b55e 183e 26f7 123e 3aed 4d3c
00000370: 15b2 dcbd 8ea9 18be 1e9e 2b3d 0ec7 323d
00000380: 4668 833d 3d8c 8fbe 7f09 cb3c 188a c9bd
00000390: d41d 8c3d e11b fe3c 0a43 78be b407 76be
000003a0: 14a4 10be 192c 51be f5a6 9cbd 9a56 06be
000003b0: 4ac5 23be 1ac5 823e 5478 13bd 21a7 3dbe
000003c0: 1cc7 3c3e e3e1 be3d 79a2 0fbc 1ced 263b
000003d0: dc2a 143e 699f 2fbc 5822 7fbe a0ae 27be
000003e0: 7585 89be 6b2b 8e3e 4711 4abe a9e2 62be
000003f0: a55e 15be 8cae 343e 04c2 8b3c 6322 23bd
0.28262484 -0.3517853 -0.1712758 0.03082629 -0.053112164 0.041885242 -0.24294136 0.13958412
-0.10891443 0.16741651 0.32304323 -0.109465756 0.2828281 -0.08704029 0.17120998 0.110101014
-0.1241681 -0.27933317 0.18406747 -0.2039038 0.10489871 0.017418645 -0.17490417 0.022070218
-0.19809188 0.0071543725 -0.011321062 -0.09008663 0.061223816 0.10503471 -0.07795959 -0.21272293
-0.23007469 0.17406532 -0.04816396 0.015226709 0.2758578 -0.3216771 -0.15915342 0.066207096
-0.15424994 -0.19412518 -0.16235174 -0.21845977 0.14249861 -0.028437508 -0.023438342 -0.027178694
-0.12896244 0.029198889 -0.062214915 0.07608638 0.014055993 -0.014070045 0.15800048 -0.039602637
0.11776836 -0.052231506 0.068035096 0.17950661 -0.06501842 -0.0729804 0.003986959 -0.34957963
0.11981108 -0.2402617 0.32810783 -0.03396355 0.04977248 0.27205762 0.030163076 -0.096417025
-0.13463362 -0.071051896 0.29813775 0.18586974 -0.24417384 0.081498384 -0.04555825 -0.2506818
0.15643096 0.0016144335 0.08444117 0.2547401 0.62097764 -0.14718544 -0.34951612 -0.38764888
-0.0195931 0.24644014 0.16060105 0.074089035 -0.12851872 -0.09677279 -0.17446528 0.15825543
-0.10329768 -0.15157932 0.32174134 -0.18327251 -0.11658821 -0.17736463 -0.12624706 -0.097168446
-0.021940384 -0.19722514 -0.14060563 -0.10352997 -0.11545422 -0.08545566 -0.28677937 -0.0064078914
0.17165059 0.163428 0.0033289995 -0.06681526 0.0015543988 -0.020955436 0.3125457 0.17512655
-0.14210291 -0.04209396 -0.03775855 -0.12978084 0.03550986 -0.22585501 -0.023728305 0.17288038
0.019601919 -0.1626578 0.080587626 0.08146543 0.14992957 -0.13516146 0.22123744 -0.097437955
-0.15161309 0.06838982 -0.104269385 -0.2555499 0.21774936 0.117102385 0.22938122 -0.124710545
0.1319855 -0.20564556 -0.19306372 -0.29196963 0.005107492 0.24499834 -0.1049797 0.24862036
-0.26670787 0.052673556 -0.035145637 -0.03651056 0.22225854 -0.20264584 0.014906776 0.008014239
-0.12834585 0.28836986 -0.062570825 -0.13079236 -0.3188421 -0.09264944 -0.15330708 0.021454569
-0.044062875 0.31008068 -0.019014731 -0.19369948 -0.044469446 -0.12553754 0.035560377 -0.2970561
-0.12229675 0.11115993 0.3150332 -0.011834813 -0.10789705 0.1267938 -0.23267494 -0.02500191
0.0059613595 0.11770673 0.20864004 0.06600848 0.07942698 -0.19777347 0.010954622 0.26735193
-0.16923203 0.092688575 0.30556288 0.2913101 0.14850914 0.002375513 -0.09491072 -0.121685825
0.0150514245 -0.14407527 -0.2541457 0.28459996 0.2142922 -0.18554887 0.11270857 -0.3320111
0.35837463 -0.111293904 -0.12844402 0.058063976 -0.00013097678 -0.11116043 0.029850796 -0.06591687
0.18308488 0.14879878 0.14352092 0.012568766 -0.10776154 -0.1490843 0.04189884 0.043646865
0.06416373 -0.2803668 0.024784802 -0.098407924 0.06841627 0.031019153 -0.24244323 -0.24026376
-0.14125091 -0.20426978 -0.07649032 -0.13118973 -0.15993229 0.25541002 -0.036003426 -0.18520786
0.18435329 0.09320428 -0.008766764 0.0025470918 0.14469475 -0.010719159 -0.24915445 -0.16375208
-0.26859632 0.277675 -0.19733153 -0.22156776 -0.14586885 0.1764471 0.017060287 -0.039827716

fc2.weight f4 [3, 256]
00000000: a4e0 ad3d 7335 03bd e922 0b3d 0a31 cfbe
00000010: 18a2 1abe 49b5 4fbe b8b9 4c3d f8a3 55bd
00000020: bbfb ddbd 0163 353e c004 bc3d 7321 fcbc
00000030: 5abd 9e3d 03e1 23be 4f50 dabd 850e 83bd
00000040: 90b6 41be 1025 b33c 3f0f 143c d336 91bd
00000050: fdd0 c9be a68b 9ebe 7ae2 b9be 2e57 6bbd
00000060: eca1 78bd e44f 9dbe 1d53 903e a801 92be
00000070: 1c4b ce3d 2e87 dfbe 818c a1be d2fe c3bd
00000080: 3e0e 223d 52e8 3f3c f264 b23c 8c4c d5bd
00000090: 5937 a93b 1d74 033d 6dd1 56be e870 c5bd
000000a0: ed95 423c 0b7d 92be 490f 9fbe 8c51 efbd
000000b0: bc7f 93bd 536a 10be eb56 21bd 9fa4 523e
000000c0: c9d9 aebd 09fb 403d 0a66 143e ffe1 cabd
000000d0: 0ea6 183e 36a2 0dbe fca0 2dbe b91d 94be
000000e0: 10da 30bd e80e f33d 5644 a43e 35d6 b23d
000000f0: bf1a 943e d99d 1bbe bcca ffbd 4e83 71bc
00000100: a328 023e c93c 9fbd d346 683e 4d9a e7bd
00000110: 285c b8bd 1a30 9f3d 4726 49bd 17af 583e
00000120: a601 5fbe c19a 133e 40b4 503d 0a2d 9cbc
00000130: 1a64 f6bd 0a05 e13d fa99 b2be b13f b7bd
00000140: 07c1 733e c583 70be 2f46 8abd ea5e 063d
00000150: 5288 593e 8e3d 6bbc 01e9 103c 5c07 85bc
00000160: 5fda 6f3d 9966 4d3d df8c c9bc c865 57bd
00000170: a112 40bd fd76 e23d 2ed1 42be b793 e3bc
00000180: abbd 333e bd5f fbbd 77de 903e 422f 32be
00000190: 62b8 a6bd 21d1 1cbe d118 8d3d 5795 143e
000001a0: ad27 8abd fd45 a5be c14b 02be 6781 40bd
000001b0: baed 06be bf1c 2ebe b857 7e3d 9ebb dbbe
000001c0: 8936 d13d bac7 053e 29d1 373d 09b4 dcbd
000001d0: 7b3b f73c b010 42bd 975e a93d 65fe 60bd
000001e0: 9869 a63e f14b f03d 8a08 43be ea65 1fbe
000001f0: 13fb 5dbc f8f4 4dbe 5ad5 e3bd 743f 543e
00000200: 1bb7 d8be d7b5 59be b27a 693e 3d16 7ebe
00000210: 2fba b8bb 9066 80be 3944 243e 6b5d aabe
00000220: 887f 353e 8817 603e 82b3 c4bd 65d0 89be
00000230: 8163 8e3e caac 97bd df95 cf3d 11b6 e6be
00000240: 478e 563d 3d31 0c3d 1840 97be 1d23 6cbb
00000250: 834f 07be 0a1c f13d 7ccc 14be 9e79 6a3d
00000260: 0d80 24be c530 4abe 3e69 983d e98e f9be
00000270: 4ac9 d73d 40fa 853d 8632 6c3c d28f 16be
00000280: d456 a9bd 124d 943d 8800 d0bd 0c83 77be
00000290: 4937 093d 37e6 99bd d4dd b13e b637 98bd
000002a0: a2af 84be fcd9 df3d a03f 41bd 44bf 853e
000002b0: 66f0 093d 3bea 77bd 46fe 9bbe 6ae2 2f3c
000002c0: 02f9 2abe f53a c7bd d6e7 453e eb58 913e
000002d0: b594 1dbe 4862 c5bd 8ab2 513e 4be0 09bd
000002e0: 1e70 8a3d 1297 f2bd 5b71 8dbe 0052 a2be
000002f0: dc7e 213e 2754 0fbb d19b 74be cd88 b03d
00000300: c90c c33d aac8 e2bd 6d40 303d 9d74 8f3e
00000310: 7a5c e83d c3ec 523e 86c3 fe3d 0e2d 4abe
00000320: b663 9d3e b6f2 4dbe 3b39 11be 856d 143c
00000330: e5b5 093e 415d d2bd 6b40 943e b86e bfbd
00000340: 17d6 213e b5f3 98be 4209 6bbe c221 a43c
00000350: 189b 8e3e d9f1 60be f31e 07bd 8070 a73d
00000360: 21c5 cd3e 71e4 7dbc b8a9 ba3c fd4b 2e3e
00000370: e4f7 b2be 70b4 5d3c bf93 533c d421 dfbd
00000380: afbb f83d 25fe b7bd ab30 69bd fb65 6f3e
00000390: 9c53 163e aa7d 3fbe dcf5 8b3d d3c6 d3be
000003a0: 0e17 bdbe 45f1 8abc f59c 3ebe 7737 32be
000003b0: af7a 61be a39a 14bc f044 8938 f461 98be
000003c0: 7b99 1b3d 1c3d 12bf c85c 53be c36c 74be
000003d0: c394 aebd 73c6 263e 7bf9 7ebe 9728 cabe
000003e0: 58b8 05be bde0 cbbc 076a 863e 7b0f 6cbc
000003f0: e6ad 96be e932 8b3e 688e 90bd 19aa be3d
0.084901124 -0.032033395 0.03396884 -0.404671 -0.15100896 -0.20283999 0.049981803 -0.052158326
-0.108390294 0.17713548 0.091805935 -0.030777669 0.0775096 -0.16003804 -0.10659849 -0.06399254
-0.18917298 0.021868259 0.009036838 -0.07090535 -0.39417258 -0.30965918 -0.363056 -0.057456188
-0.060701296 -0.30725014 0.2818841 -0.2851689 0.1007292 -0.4365782 -0.31552508 -0.095700875
0.039564364 0.011713104 0.02177665 -0.10414991 0.0051640687 0.032093156 -0.20978327 -0.09640676
0.011876565 -0.28611025 -0.3106635 -0.11685476 -0.07202098 -0.1410306 -0.039389532 0.2057061
-0.08537633 0.047114406 0.1449205 -0.099063866 0.14907095 -0.1383141 -0.16955942 -0.28928927
-0.04317671 0.118680775 0.32083386 0.08732263 0.28926656 -0.15196933 -0.124898404 -0.014740778
0.12710814 -0.07775266 0.22683267 -0.113087274 -0.090019524 0.077728465 -0.04910877 0.21160541
-0.21777973 0.14414503 0.05095315 -0.019064445 -0.120308116 0.10987289 -0.348831 -0.08947695
0.23804103 -0.23487766 -0.06751668 0.03280536 0.21243408 -0.0143579375 0.008844615 -0.01623886
0.058557864 0.050146673 -0.024603305 -0.0525873 -0.046892766 0.110578515 -0.19025108 -0.027780397
0.17552821 -0.1227412 0.28294727 -0.1740084 -0.08140637 -0.15314151 0.06889499 0.14510094
-0.06745849 -0.3227996 -0.1272421 -0.046998408 -0.13176623 -0.17003153 0.062095374 -0.42916578
0.1021548 0.13064471 0.044877205 -0.107765265 0.03017973 -0.047379196 0.08269995 -0.05493011
0.32502437 0.11733235 -0.19046226 -0.15566221 -0.01354863 -0.2011298 -0.11124678 0.2072733
-0.42327198 -0.21260773 0.22800711 -0.2481317 -0.005637429 -0.2507825 0.1604165 -0.33274397
0.1772443 0.21883976 -0.09604551 -0.26916805 0.2781029 -0.07406004 0.101360075 -0.4506078
0.05238178 0.034226645 -0.29541087 -0.0036031671 -0.13213925 0.11772926 -0.1453113 0.05724489
-0.16064472 -0.19745167 0.07441948 -0.48741844 0.1053644 0.06541872 0.014416343 -0.147033
-0.08268514 0.072412625 -0.10156351 -0.24171084 0.03349999 -0.07514613 0.34739554 -0.07432501
-0.25915247 0.10930249 -0.04717982 0.26122487 0.033676527 -0.060526114 -0.30467433 0.010735134
-0.16696551 -0.09728042 0.1932672 0.28388152 -0.15388758 -0.09637886 0.20478263 -0.033661168
0.06759666 -0.118452206 -0.27625546 -0.31703186 0.1577105 -0.0021870227 -0.23887564 0.08619843
0.09523923 -0.1107343 0.04303019 0.28018656 0.113457635 0.2059813 0.12439637 -0.1974375
0.30740136 -0.20112118 -0.14181988 0.009059315 0.13448294 -0.10271693 0.28955397 -0.0934729
0.15804325 -0.29873434 -0.2295275 0.020035628 0.27852702 -0.21967258 -0.0329885 0.081757545
0.4018946 -0.015496359 0.022786006 0.17021175 -0.3495475 0.013531789 0.012913643 -0.10895124
0.12145173 -0.08984021 -0.05693118 0.23378746 0.14680332 -0.18700281 0.06834003 -0.41362628
-0.36931652 -0.01696075 -0.18614562 -0.1740397 -0.22019456 -0.009070071 6.54551e-05 -0.29762232
0.037988167 -0.57124496 -0.20640862 -0.23869614 -0.08524468 0.1628664 -0.24899857 -0.39484093
-0.13058603 -0.024887437 0.26252767 -0.014407988 -0.2942955 0.2718728 -0.07058412 0.09309787

fc2.bias f4 [3]
00000000: 2286 df3d 64cc a7bd 5fb8 bdbd
0.10914256 -0.08193281 -0.092636816
